weights/policy_sample_v1_3.onnx (onnx, 848645 bytes, 8 tensors)

actor.0.weight f4 [512, 90]
0	0xbea1c27f	-0.315937
1	0x3e5a0ce0	0.21293974
2	0x3e4d8ac4	0.20072466
3	0x3da49d6b	0.080378376
4	0xbc9d9a16	-0.019238513
5	0xbd82b39c	-0.06381914
6	0xbd8195ee	-0.06327425
7	0xbca0205a	-0.019546676
8	0x3ca4a93d	0.02010023
9	0xbcbe25e7	-0.023211433
10	0xbd99f203	-0.07516863
11	0xbdc11a42	-0.094288364
12	0xbd67ce51	-0.056593243
13	0xbd89e573	-0.06733217
14	0x3cf9133c	0.03040468
15	0xb9ba646c	-0.00035551505
16	0xbd5818ed	-0.052758146
17	0xbbf8044e	-0.0075688725
18	0xbd3e45e8	-0.046453387
19	0x3a4afae6	0.0007743075
20	0xbb26549e	-0.0025380026
21	0x3e3434b2	0.17598227
22	0x3e3d2498	0.1847099
23	0x3e2eba8a	0.17063347
24	0x3dcc191e	0.09965728
25	0xbd6d8158	-0.05798468
26	0xbd7d008d	-0.061768103
27	0xbb9bb738	-0.004752066
28	0xbea74717	-0.32671425
29	0x3e82b65b	0.2552975
30	0x39861921	0.00025577194
31	0x3dd2ba13	0.10289397
32	0xbde06df6	-0.109584734
33	0xbe1289a8	-0.14310324
34	0xbd367367	-0.04454365
35	0xbc31b315	-0.010845919
36	0x3c1af44e	0.009457661
37	0xbce286ee	-0.02765223
38	0xbd59267e	-0.053015225
39	0x3d47a0e2	0.048737414
40	0xbd2933ff	-0.041309353
41	0xbc1dc7a2	-0.009630116
42	0xbd4e028e	-0.050295405
43	0xbcd8be6d	-0.02645799
44	0x3d9820e9	0.07428152
45	0xbdbdb475	-0.09262935
46	0x3e57650e	0.21034643
47	0x3db7d5cc	0.089763254
48	0xbd923787	-0.07139497
49	0xb91e25a0	-0.0001508207
50	0x3d90acd4	0.07064214
51	0x3df7860e	0.12086116
52	0xbdb13da5	-0.08654336
53	0xbcdd5185	-0.02701641
54	0x3d37331b	0.044726472
55	0xbd278d7a	-0.040906407
56	0xbe946bc4	-0.2898847
57	0x3e45aa03	0.19303136
58	0xbd3f0615	-0.04663666
59	0x3d75c3d8	0.060001224
60	0xbde222c6	-0.11041789
61	0xbd2a992d	-0.041649986
62	0xbda873cf	-0.08225214
63	0x3dc2bddc	0.09508869
64	0x3d79546a	0.06087152
65	0xbd7d7101	-0.061875347
66	0xbd3d6e49	-0.046247754
67	0xbcbfc28b	-0.023408195
68	0x3d12a55f	0.03580224
69	0x3d9d0912	0.07667746
70	0xbc773f0e	-0.015090717
71	0xbd306197	-0.04306182
72	0xbc6ef60f	-0.014585032
73	0x3d37e56c	0.044896528
74	0x3e5145ef	0.20436834
75	0xbc6fd039	-0.0146370465
76	0xbc83c19b	-0.01608353
77	0x3d23d3ab	0.039996784
78	0x3d00f168	0.031480223
79	0x3d3c033d	0.045901526
80	0x3d3ce8e1	0.046120528
81	0x3c81e0a3	0.015854185
82	0x3d3010aa	0.042984642
83	0xba400dc1	-0.0007326268
84	0xba3fad90	-0.00073119346
85	0xbb8cce2c	-0.0042970385
86	0xbc964fad	-0.01834854
87	0x3d0e790a	0.0347834
88	0xbd49b419	-0.04924402
89	0xbdd943b7	-0.10608619
90	0x3e200f4c	0.15630835
91	0xbdbf14bb	-0.09330126
92	0x3e2792d3	0.16364603
93	0x3e2d9dc9	0.16954722
94	0xbcc85c60	-0.02445811
95	0x3d6bee60	0.05760038
96	0x3c890a41	0.016728522
97	0xbc254361	-0.010086865
98	0x3d9e5408	0.077308714
99	0x3dac44c2	0.08411552
100	0x3d40acce	0.0470398
101	0x3d1d49e2	0.03840054
102	0xbcdffd0b	-0.02734234
103	0x3bee01e6	0.00726341
104	0x3d220f2d	0.039565254
105	0x3dda0e1c	0.106472224
106	0xbdc113f5	-0.094276346
107	0x3d201f09	0.039092097
108	0x3e6a3927	0.22873364
109	0x3c1ca0ea	0.009559849
110	0x3d70d6d1	0.058798615
111	0xbcfe16ad	-0.031016672
112	0x3ea84d0d	0.32871285
113	0x3ea4bf30	0.32177114
114	0xbdd31e60	-0.10308528
115	0xbcffb355	-0.031213442
116	0xbd19895e	-0.03748452
117	0xbdad91e0	-0.08475089
118	0x3df7ee85	0.12106041
119	0xbda858f2	-0.0822009
120	0x3e5413a1	0.20710613
121	0x3d14b87d	0.036308754
122	0x3d187fc0	0.037231207
123	0xbda7f62c	-0.082012504
124	0xbc3782c8	-0.011200614
125	0x3c0dd015	0.008655568
126	0x3d229b68	0.03969899
127	0x3cfbf54d	0.030756617
128	0x3d4f9b76	0.05068537
129	0x3d7c6614	0.061620787
130	0x3da20be3	0.079124235
131	0x3db2b0b8	0.08725113
132	0xbd59565e	-0.05306088
133	0x3c7b9bf3	0.015357005
134	0xbadf5484	-0.0017038737
135	0x3cfac32b	0.030610641
136	0x3e617225	0.22016199
137	0xbdb15f32	-0.08660735
138	0xbdbad062	-0.09121777
139	0x3d19f553	0.037587475
140	0x3d369c84	0.04458286
141	0x3d638826	0.055549763
142	0x3b8eabd9	0.004353982
143	0xbd2bec39	-0.041973326
144	0xbd1a5b8a	-0.037684955
145	0xbb6b0af3	-0.003586468
146	0x3e18b141	0.14911367
147	0xbca0dd5f	-0.019636808
148	0xbbd58134	-0.0065156464
149	0x3be405c3	0.0069586947
150	0xbca272a5	-0.019830057
151	0xbd6fa730	-0.05850905
152	0x3d535e1a	0.051603414
153	0xbdb97a31	-0.09056509
154	0x3d8bc85f	0.06825327
155	0xbd1b566f	-0.037924226
156	0x3d327ac6	0.043574117
157	0x3d446315	0.047946054
158	0xbc01f924	-0.007932935
159	0xbd323ada	-0.043513156
160	0x3d2145b3	0.03937311
161	0xbbbc7d5e	-0.0057522496
162	0x3c9f4c4d	0.019445563
163	0x3b765702	0.0037588482
164	0x3e6aecb4	0.22941858
165	0x3da91342	0.08255626
166	0x3cc46d62	0.023977939
167	0x3d89cea0	0.06728864
168	0x3d54454b	0.051823895
169	0x3dfa1421	0.122108705
170	0x3e322fe0	0.17401075
171	0x3dce2754	0.10066095
172	0x3dbc3faa	0.091918305
173	0xbd515e52	-0.05111534
174	0xbe02fb36	-0.12791142
175	0x3dc595a7	0.096476845
176	0xbda281c2	-0.079349056
177	0xbdd2d9e8	-0.102954686
178	0xbd091eef	-0.033476766
179	0xbe6fc610	-0.23415399
180	0x3e3afbb6	0.18260083
181	0xbcbc200a	-0.022964496
182	0xbe01d717	-0.12679707
183	0xbe2cc68c	-0.16872615
184	0x3de94da7	0.11391764
185	0x3d1e2b85	0.038615722
186	0x3d3a3e54	0.045469597
187	0x3d210a05	0.039316196
188	0xbc41dede	-0.011832921
189	0xbd78effc	-0.060775742
190	0xbc3d4f74	-0.011554588
191	0xbd9c05ba	-0.0761828
192	0x3d88b13e	0.06674431
193	0xbd6acfd4	-0.057327107
194	0xbde7cab9	-0.11317963
195	0xbbbed915	-0.005824218
196	0x3d8a120a	0.06741722
197	0x3d565222	0.05232442
198	0xbe1e23c1	-0.15443327
199	0x39897866	0.0002622038
200	0x3de220da	0.11041422
201	0x3ddd4b87	0.10805421
202	0xbe3f3d17	-0.18675648
203	0xbeceb64b	-0.40373453
204	0x3e0209b2	0.12699011
205	0xbc9269fa	-0.0178728
206	0xbd413d53	-0.047177624
207	0x3dcf23f4	0.101142794
208	0x3dbeb7c1	0.09312392
209	0x3e04d632	0.12972334
210	0xbe0a79e8	-0.13523066
211	0x3d3d6eb4	0.046248153
212	0x3c2ef82e	0.010679288
213	0x3b5fb37a	0.0034134076
214	0x3d08d9d6	0.03341087
215	0x3d50779b	0.050895315
216	0x3d122c2c	0.035686657
217	0x3d09294f	0.03348666
218	0xbd5b331d	-0.053515542
219	0xbb6be9dd	-0.0035997548
220	0x3d58a279	0.05288932
221	0x3d598c72	0.053112455
222	0xbdaf28cb	-0.085527025
223	0xbd1423c8	-0.036166936
224	0x3e095190	0.1341002
225	0xbdb2a7a3	-0.087233804
226	0xbe736848	-0.23770249
227	0xbd5e39a7	-0.0542542
228	0xbbf863e3	-0.007580267
229	0xbd83c4f9	-0.06434054
230	0x3d0030ca	0.03129653
231	0xbe366223	-0.17810874
232	0xbc3ca62d	-0.011514229
233	0x3d8c236d	0.068426944
234	0x3db28f23	0.087187074
235	0xbd830fea	-0.0639952
236	0x3e0f6279	0.14002408
237	0xbd0aa81f	-0.03385174
238	0xbdd3583d	-0.103195645
239	0x3d25cfb3	0.04048128
240	0x3dece69b	0.11567422
241	0x3cbcb5e0	0.023035944
242	0x3d8ee7a4	0.06977776
243	0x3d44bee5	0.048033614
244	0x3c3512ad	0.011051816
245	0xbc7885cc	-0.015168618
246	0xbd587fb6	-0.05285617
247	0xbda6a888	-0.081376135
248	0x3ca5636a	0.020189006
249	0xbd189ec4	-0.037260786
250	0xbd17a2e9	-0.037020598
251	0x3d15a3a1	0.036533
252	0x3dc23491	0.094826825
253	0xbc411e3e	-0.011786995
254	0xbe1046f9	-0.14089574
255	0x3a3a01bd	0.0007095596

actor.0.bias f4 [512]
0	0x3d31e0ca	0.043427266
1	0x3df81487	0.1211329
2	0xbd78cd73	-0.060742807
3	0x3e476c5a	0.19474927
4	0x3e2e592a	0.17026201
5	0xbc5d05c6	-0.013490146
6	0x3de36b95	0.11104504
7	0xbda8d0be	-0.082429394
8	0xbd1af1af	-0.037828144
9	0x3d0ca909	0.034340892
10	0xbdf4650a	-0.11933334
11	0x3dd49f65	0.103819646
12	0x3e4c9828	0.19979918
13	0x3d992d6b	0.07479366
14	0x3d5bf8b5	0.053703982
15	0xbbbfeb27	-0.0058568898
16	0x3dbcf018	0.09225482
17	0xbd995a06	-0.07487874
18	0x3dd3bea6	0.10339098
19	0x3e305571	0.17220093
20	0xbe862d8e	-0.2620663
21	0xbde18165	-0.11011008
22	0x3e42c0fd	0.19018932
23	0x3d455bd7	0.04818329
24	0x3df9bbad	0.121939994
25	0x3ddf7cd3	0.1091248
26	0x3e156e07	0.14592753
27	0x3da33284	0.079686195
28	0x3da0a81c	0.07844564
29	0x3d149334	0.036273196
30	0xbdb0c867	-0.08631974
31	0x3e54190e	0.20712683
32	0x3bece939	0.0072299507
33	0x3daca730	0.08430326
34	0x3e38ae3c	0.18035215
35	0xbd10405f	-0.03521764
36	0xbe35e49a	-0.17762986
37	0xbb8207b0	-0.0039682016
38	0x3ddd2d67	0.107996754
39	0x3e1d9fc1	0.15392973
40	0x3dba8905	0.09108166
41	0x3e57fa4a	0.21091571
42	0xbdef9b54	-0.11699548
43	0x3e2f6c2b	0.17131107
44	0x3da90c19	0.082542606
45	0x3d1fdd91	0.03902966
46	0xbc2b43f5	-0.010453214
47	0xbc9e44db	-0.019319942
48	0x3d9f4191	0.07776178
49	0xbe3a45be	-0.18190667
50	0xbd9d38b9	-0.076768346
51	0x3e20e9b0	0.15714145
52	0xbd03e5d7	-0.032201614
53	0x3d1c758c	0.03819804
54	0x3dc06b41	0.09395457
55	0xbe04c3e0	-0.12965345
56	0xbe5cd0a5	-0.21563967
57	0xbc6866f7	-0.014184705
58	0x3b9eed4a	0.0048500644
59	0x3e29120d	0.16510792
60	0xbbf34519	-0.0074240086
61	0x3d48f026	0.04905715
62	0x3d720ddc	0.05909525
63	0x3e1eaea3	0.15496306
64	0x3d4a53e4	0.04939641
65	0x3e49895c	0.19681305
66	0xbda1a123	-0.078920625
67	0x3d4b7c54	0.049679115
68	0x3e3e88c8	0.18606865
69	0x3d9f5d7a	0.07781501
70	0xbdd05c62	-0.101738706
71	0xbdfa97ee	-0.122360095
72	0x3ce17102	0.027519707
73	0x3d1722ab	0.036898296
74	0x3df698b0	0.120408416
75	0xbde779b7	-0.11302512
76	0x3e27fd7e	0.16405293
77	0x3dfb4570	0.122691035
78	0x3e57123a	0.21003047
79	0xbc7f7a04	-0.015593056
80	0x3e137de3	0.1440349
81	0x3e84323e	0.25819582
82	0x3e40ab5f	0.18815373
83	0xbdf390d2	-0.11892857
84	0x3ba15865	0.0049238675
85	0x3e0a8291	0.1352637
86	0x3b798eb5	0.0038079445
87	0x3e1cbc25	0.15306146
88	0x3df5b383	0.1199713
89	0x3e3d8550	0.18507886
90	0xbd8d66c4	-0.069043666
91	0xbe361ba2	-0.17783979
92	0xbe1d9475	-0.15388663
93	0x3d1ae80b	0.03781895
94	0x3cc2db54	0.023786224
95	0x3e1af0bc	0.15130895
96	0xbd786379	-0.06064174
97	0xb8249bdf	-3.9245813e-05
98	0x3d516ed8	0.0511311
99	0x3dbabfcf	0.09118616
100	0x3e7fcc10	0.24980187
101	0x3c8451f8	0.016152367
102	0x3c3eae26	0.0116382
103	0xbcef1c3e	-0.029188272
104	0x3dd1dfa6	0.10247736
105	0xbe4aafb7	-0.19793592
106	0x3e3043e6	0.17213401
107	0x3d4b930c	0.04970078
108	0xbcffe5d7	-0.031237526
109	0xbe2a595d	-0.16635652
110	0xbd033235	-0.032030303
111	0x3d829dfb	0.06377789
112	0x3e6aed2a	0.22942033
113	0x3d4fecf0	0.05076307
114	0x3e5b581a	0.21420327
115	0xbc8e38ac	-0.017361008
116	0x3ddd2f77	0.10800069
117	0xbe6bbacb	-0.23020475
118	0x3d108f45	0.035292882
119	0x3e42b039	0.19012536
120	0xbe129df8	-0.14318073
121	0x3c551c14	0.013007183
122	0x3de0b0dc	0.10971233
123	0x3ce8d289	0.028420703
124	0x3d4a418e	0.049378924
125	0x3e2551e2	0.16144517
126	0x3c21a8fe	0.009866951
127	0x3e38ac9f	0.180346
128	0x3db97ce9	0.09057028
129	0x3dfa4629	0.12220413
130	0x3dfcceba	0.123441175
131	0x3d597f25	0.05309977
132	0xbd5b0be9	-0.053478155
133	0x3e4d23f7	0.20033251
134	0x3e747caa	0.2387568
135	0x3e8464ea	0.2585824
136	0xbd45d4f6	-0.0482988
137	0x3e3da375	0.18519385
138	0x3cdea1fd	0.027176851
139	0x3d2538e1	0.040337447
140	0xbde269c7	-0.11055332
141	0xbb71463d	-0.0036815547
142	0xbe5618d1	-0.20907904
143	0x3d5b2934	0.05350609
144	0x3b651bb7	0.0034959146
145	0xbe873267	-0.2640564
146	0x3d8d8efa	0.06912036
147	0xbdb1964a	-0.086712435
148	0xbd46cfa5	-0.04853787
149	0x3daf961e	0.085735545
150	0x3d025334	0.03181763
151	0x3daba795	0.08381573
152	0x3e10b6c9	0.14132227
153	0x3bcb79d6	0.0062095923
154	0x3c72c27b	0.014816876
155	0x3e85a373	0.26101264
156	0xbdf175a7	-0.117900185
157	0x3d19715a	0.037461616
158	0x3e424b70	0.1897409
159	0xbe4132f2	-0.1886709
160	0xbe0c5852	-0.13705567
161	0xbd3b37a4	-0.04570736
162	0xbdcecba6	-0.100974366
163	0x3df61e15	0.120174564
164	0x3e17577c	0.14779466
165	0x3d1f8a0a	0.038950004
166	0xbe331a6b	-0.17490546
167	0x3d24653f	0.04013562
168	0xbde44173	-0.11145296
169	0xbd60a1bb	-0.05484174
170	0xbde9233d	-0.11383674
171	0xbcee6f28	-0.029105738
172	0x3d838486	0.06421761
173	0xbe82d7af	-0.2555518
174	0x3a35fdfe	0.000694245
175	0x3e4bd0dc	0.19903892
176	0xbd8e9936	-0.069628164
177	0x3d6a69d6	0.05722984
178	0xbd9b82dd	-0.075933196
179	0x3c84b6d7	0.016200466
180	0x3e49ca9e	0.19706199
181	0x3e302ba8	0.17204154
182	0x3d6a00c0	0.05712962
183	0xbd7af3a4	-0.06126751
184	0xbdbbdf42	-0.091734424
185	0x3e63c8f8	0.22244632
186	0x3e086519	0.13319816
187	0x3e1fdcfb	0.15611641
188	0x3c042cbc	0.008067306
189	0x3e51351b	0.20430414
190	0xbe218f4e	-0.15777323
191	0xbdd56486	-0.10419564
192	0xbde170e2	-0.11007859
193	0x3da7d6b5	0.08195249
194	0x3d9af892	0.07566942
195	0x3e3083e3	0.17237811
196	0x3dbf0769	0.09327585
197	0x3e1d77c0	0.15377712
198	0xbde267e0	-0.11054969
199	0x3d02e506	0.031956695
200	0xbc45c317	-0.012070439
201	0xbe260c6c	-0.16215676
202	0xbd2bfe54	-0.041990593
203	0xbd999478	-0.07499021
204	0x3e4874fa	0.19575873
205	0x3ce7471d	0.028232152
206	0x3e1cd26a	0.15314642
207	0x3e064e74	0.13115865
208	0xbd2d732b	-0.04234616
209	0x3e263cef	0.16234182
210	0x3c79a31e	0.015236644
211	0xbd49248c	-0.04910712
212	0x3d94d998	0.07268065
213	0x3d00aaa8	0.03141275
214	0xbe85ea98	-0.26155543
215	0x3e1fa3fb	0.15589897
216	0x3de96600	0.11396408
217	0x3dbcddb4	0.09221974
218	0xbcbbba60	-0.022916019
219	0xbca5c643	-0.02023614
220	0xbe0dbf92	-0.1384261
221	0x3e35595b	0.17709868
222	0xbc22e996	-0.009943387
223	0x3d45daf2	0.048304506
224	0xbe36006c	-0.17773598
225	0xbd12bc70	-0.03582424
226	0x3e7dc982	0.247839
227	0x3e239567	0.15974961
228	0xbca0606d	-0.01957723
229	0xba67a116	-0.00088359544
230	0xbc8d122d	-0.017220581
231	0x3e0e406b	0.13891761
232	0x3e47c12a	0.1950728
233	0x3e6afa14	0.2294696
234	0x3db91a2a	0.090381935
235	0x3e12de4b	0.1434261
236	0x3e13729a	0.14399186
237	0xbe80a17e	-0.2512321
238	0x3e38d9ed	0.18051882
239	0xbca1d2d7	-0.019753857
240	0x3d72c934	0.059273914
241	0x3d955589	0.07291705
242	0xbce80f51	-0.028327616
243	0x3da7103a	0.08157392
244	0x3e879c70	0.2648654
245	0x3c9e228f	0.019303588
246	0xbd21c668	-0.039495856
247	0xbe318aa3	-0.17338042
248	0xbe833f19	-0.25634077
249	0x3e2f4095	0.1711448
250	0xbdb005ab	-0.08594831
251	0x3d257b54	0.040400818
252	0xbd421daa	-0.04739157
253	0xbe489e03	-0.19591527
254	0xbd0a2105	-0.033722896
255	0x3dafb84e	0.08580075

actor.2.weight f4 [256, 512]
0	0xbc236dcd	-0.009974909
1	0x3d0128aa	0.03153292
2	0x3d3f2a16	0.046670996
3	0x3ce587f2	0.028018925
4	0x3cd3aced	0.025839293
5	0x3c40fcf0	0.011779055
6	0xbca02949	-0.019550936
7	0xbbd86bd6	-0.006604652
8	0x3cd4a212	0.025956187
9	0x3c6be713	0.014398354
10	0xbc4dbf3d	-0.012557802
11	0x3ca62f19	0.02028613
12	0xbcf03f9a	-0.029327203
13	0xbc378583	-0.011201265
14	0x3c1105b6	0.008851459
15	0x3b6c2b21	0.003603645
16	0xbcd8b171	-0.026451798
17	0xbd1e9748	-0.03871849
18	0xbc9a765a	-0.018855263
19	0x3b59279c	0.0033135181
20	0xbd3cb977	-0.04607531
21	0xbb25ad67	-0.0025280358
22	0xbd3f73c0	-0.046741247
23	0xbbb12a0c	-0.0054066237
24	0x3c5a9624	0.01334146
25	0xbc218c87	-0.0098601645
26	0x3d085c6a	0.033291258
27	0xbc6a0ffd	-0.0142860385
28	0x3ce96e3a	0.028494943
29	0xbd84318c	-0.06454763
30	0xbc339742	-0.010961356
31	0xbd9ca352	-0.076483384
32	0x3ced034d	0.028932238
33	0xbc745547	-0.01491291
34	0x3cb64622	0.022250239
35	0x3b95a797	0.0045670974
36	0xbbe8d21b	-0.0071051246
37	0xbc1899f5	-0.00931405
38	0x3d707cc5	0.05871274
39	0x36faa8e8	7.470244e-06
40	0xbceb7cdc	-0.028746061
41	0x3d302bd9	0.043010566
42	0xbcdf0385	-0.027223358
43	0xbd82495f	-0.06361651
44	0x3d0a8483	0.03381778
45	0x3bfc2806	0.007695201
46	0xbd27fe94	-0.04101427
47	0x3cd50286	0.02600218
48	0x3cbfe969	0.023426728
49	0xbce1d1e0	-0.027565897
50	0xbb919af4	-0.0044435207
51	0x3cf9d8ff	0.03049898
52	0x3c1aadb1	0.009440825
53	0xbc6b4aba	-0.014361078
54	0x3c628a14	0.013826866
55	0x3d637822	0.05553449
56	0x3c3867bc	0.011255201
57	0x3b181a74	0.0023209127
58	0x3ca6f299	0.020379351
59	0xbd44f9cb	-0.048089784
60	0xbca786a9	-0.020449953
61	0xbb1c9bc2	-0.002389655
62	0x3d4a83e7	0.049442198
63	0x3d0dd02a	0.03462235
64	0xbd514ee0	-0.05110061
65	0x3c2e77fd	0.010648725
66	0xbcaa7d54	-0.020811714
67	0xbb846a22	-0.0040409723
68	0xbd3dee5b	-0.04636989
69	0xbcf03344	-0.02932132
70	0x3b9c20c0	0.0047646463
71	0xbc1d0887	-0.009584553
72	0x3d046433	0.03232212
73	0xbbf06fdf	-0.007337555
74	0xbcb85f32	-0.02250633
75	0xbcba5a40	-0.022748113
76	0xbc843393	-0.016137874
77	0xbca4403f	-0.020050166
78	0xbcaaebf9	-0.020864474
79	0xbd13867c	-0.036016926
80	0xbcc188a3	-0.023624724
81	0xbced7075	-0.028984288
82	0xbd04beac	-0.0324084
83	0x398f1347	0.00027289448
84	0xbd5fe7e7	-0.05466452
85	0x3c855b25	0.016278813
86	0xbcd13289	-0.025536792
87	0xbbd208eb	-0.0064097545
88	0xbd0af6bb	-0.033926707
89	0xbbfe96b4	-0.00776943
90	0xbc7683b9	-0.015046054
91	0x3c87ee89	0.016593235
92	0xbbaa07db	-0.0051889247
93	0x3c2167c6	0.009851402
94	0xbc1489aa	-0.009066025
95	0xbd039956	-0.032128654
96	0xbd3ef12d	-0.046616722
97	0xbccbedaf	-0.02489361
98	0xbd2e2191	-0.04251248
99	0x3bd9764b	0.006636416
100	0x3c176220	0.009239703
101	0xbbbbd679	-0.0057323542
102	0x3c7caf03	0.015422585
103	0xbd10878a	-0.03528551
104	0x3c6343d9	0.013871157
105	0x3bb69766	0.0055722473
106	0xbcc696a7	-0.024241759
107	0xbd28a824	-0.041175976
108	0xbc477cff	-0.0121757975
109	0x3c5e2801	0.013559342
110	0x3ccc1987	0.024914516
111	0x3bb57630	0.0055377707
112	0xbae267f8	-0.0017273417
113	0xbcd19900	-0.025585651
114	0xbd4a7174	-0.049424604
115	0x3c7cbecb	0.015426348
116	0xbc5a1a41	-0.0133119235
117	0xbb691478	-0.003556518
118	0xbca69840	-0.02033627
119	0xbc034e39	-0.008014255
120	0x3c860db0	0.016363949
121	0x3cf5664a	0.029956002
122	0x3d0163d5	0.031589348
123	0x3c5e6b82	0.013575437
124	0xbb8ed85e	-0.004359289
125	0x3be37462	0.006941364
126	0xbc2ece52	-0.010669308
127	0xbcff53b1	-0.031167837
128	0x3cb0449f	0.021517096
129	0xbcbd9efe	-0.023147102
130	0xbcba7811	-0.02276233
131	0x3c8aabba	0.016927589
132	0xbcb44275	-0.022004345
133	0x3cb223a8	0.021745518
134	0xbc3b342a	-0.011426011
135	0xbcf6b46f	-0.030115334
136	0x3d6b1559	0.057393406
137	0xbb11057e	-0.0022128518
138	0xbcddb2c7	-0.027062787
139	0xbb8ce81b	-0.00430013
140	0xbc934e25	-0.017981598
141	0xbd69c2a4	-0.05707039
142	0x3b101fe9	0.0021991676
143	0x3d02461b	0.03180514
144	0xbcf7106b	-0.030159196
145	0xbd03e636	-0.032201968
146	0xbceda9e9	-0.029011684
147	0x3d0e088f	0.03467613
148	0xbbcd231b	-0.0062602884
149	0xbc98be9c	-0.018645577
150	0x3d3900c8	0.04516676
151	0x3d044752	0.03229458
152	0xbc54cfcd	-0.012988997
153	0xbb3a6d23	-0.0028446398
154	0xbd8c4fac	-0.06851134
155	0x3c911067	0.017708017
156	0x3d525f04	0.051360145
157	0x3d1bc3a3	0.03802837
158	0xbd93739b	-0.07199784
159	0x3d47963b	0.048727255
160	0xbcb916b9	-0.022593843
161	0xbc7008ee	-0.0146505665
162	0x3ba46166	0.0050164936
163	0x3ca80748	0.020511284
164	0xbc7de634	-0.015496779
165	0xbc598070	-0.013275251
166	0x3b389851	0.002816696
167	0xbcc5c842	-0.024143342
168	0x3d1f7bce	0.03893643
169	0x3ca556b5	0.020182947
170	0xbc93f0f0	-0.018059224
171	0x3d35b749	0.044364247
172	0x3cc027d0	0.023456484
173	0x3b8f12ae	0.0043662405
174	0x3c6a6cb0	0.01430814
175	0xbc8793e8	-0.01655002
176	0x3c91ee83	0.017813927
177	0x3cee0049	0.02905287
178	0x3cf84a58	0.030308887
179	0xbcd7ff66	-0.0263669
180	0xbd218f3d	-0.039443243
181	0xbc8d03e4	-0.01721377
182	0xbbe1b3d6	-0.006887893
183	0x3d76798c	0.06017451
184	0xbd042dbe	-0.032270186
185	0xbc3962bc	-0.011315044
186	0x3bd382fb	0.006454823
187	0x3cb5e417	0.022203488
188	0x3ce3b2f8	0.0277953
189	0xbbf37b41	-0.0074304645
190	0x3b96e665	0.004605102
191	0x3d6a916d	0.057267595
192	0x3d0ffa14	0.035150602
193	0xbd048913	-0.032357287
194	0xbbac1223	-0.0052511855
195	0xbcc06e55	-0.02349011
196	0xbd3037af	-0.043021854
197	0xbc5c9b6d	-0.013464791
198	0xbc00ef19	-0.007869505
199	0x3cbe4b59	0.023229288
200	0xbcea3d72	-0.028593753
201	0xbc89918e	-0.016793039
202	0x3ca46991	0.02006987
203	0x3ce670da	0.028129984
204	0xbd3485e5	-0.044073004
205	0x3d3de244	0.04635836
206	0x3cd4da22	0.02598292
207	0x3cadbc2f	0.021207897
208	0x3d757920	0.059929967
209	0x3c95c449	0.018282073
210	0x3cec8220	0.028870642
211	0xbc146b23	-0.0090587465
212	0xbd26eada	-0.040751316
213	0x3d183bdb	0.037166458
214	0x3d82e3ad	0.06391082
215	0xbd077879	-0.033073876
216	0xbcda7dfe	-0.026671406
217	0xbb5ad58a	-0.003339144
218	0xbc1b4d52	-0.009478884
219	0x3c2e817b	0.010650988
220	0x3d044f5a	0.032302238
221	0xbd2914ed	-0.041279722
222	0x3d20770f	0.039176043
223	0xbcb21579	-0.021738755
224	0x3d288b6b	0.041148584
225	0x3c707331	0.014675901
226	0x3b128548	0.0022357274
227	0x3d3accc8	0.04560545
228	0x3c3977f7	0.011320106
229	0xbd4e53d7	-0.050372925
230	0xbca49066	-0.020088386
231	0x3d22d8b7	0.039757457
232	0xbbd9d311	-0.0066474755
233	0xbd1bdc4a	-0.03805188
234	0xbc620967	-0.013796187
235	0x3c05a4dc	0.008156981
236	0xbd695ebc	-0.05697511
237	0x3cd94d94	0.02652625
238	0xbbc50571	-0.0060126116
239	0x39c8ec66	0.00038323103
240	0xb91b396a	-0.0001480334
241	0x3c86f154	0.016472496
242	0x3d53de6e	0.051725797
243	0xbd0d0ed1	-0.03443796
244	0xbc8448a1	-0.016147913
245	0x3c082e49	0.0083118165
246	0x3d2fcd90	0.04292065
247	0x3ca52a4b	0.020161768
248	0x3c7bd4d2	0.015370565
249	0xbc2b001e	-0.01043704
250	0x3c695a79	0.014242762
251	0xbc718ae0	-0.014742583
252	0x3ca12310	0.01967004
253	0xbab3d2d9	-0.0013719454
254	0xbbf5e3e9	-0.0075039756
255	0xbd2792f1	-0.04091162

actor.2.bias f4 [256]
0	0xbdab50a8	-0.08364993
1	0x3c811205	0.015755663
2	0xbe092b87	-0.1339551
3	0x3cc511b5	0.024056295
4	0xbe146d61	-0.1449485
5	0xbdea8767	-0.11451607
6	0x3a4ddfc4	0.0007853473
7	0xbcd89201	-0.026436808
8	0x3d0e3658	0.034719795
9	0xbde99f46	-0.11407332
10	0xbd23bde1	-0.039976005
11	0x3d9c9328	0.07645255
12	0x3dcc7b9a	0.099845126
13	0xbd84fe9c	-0.064938754
14	0xbd537f77	-0.05163523
15	0xbdc2aea0	-0.09505963
16	0xbda204ae	-0.07911049
17	0xbd0078d2	-0.031365223
18	0xbdad128c	-0.08450803
19	0x3d397b1a	0.045283414
20	0xbd949dfb	-0.07256695
21	0xbc39fb3f	-0.011351406
22	0xbdd4007e	-0.103516564
23	0xbc3f7b41	-0.011687101
24	0xba58b8ba	-0.00082672725
25	0xbd622cd4	-0.055218533
26	0xbc2350ef	-0.009968027
27	0xbc60b6f5	-0.013715495
28	0xbdb0eda3	-0.086390756
29	0x3d54ad05	0.051922817
30	0x3c900204	0.017579086
31	0xbcb0730d	-0.021539235
32	0xbd6d7d4b	-0.057980817
33	0xbc14514a	-0.009052584
34	0xbdab5fe6	-0.083679006
35	0xbdb15831	-0.08659399
36	0xbdc54f5f	-0.096342795
37	0xbd21db86	-0.039515994
38	0xbc4cf563	-0.012509677
39	0xbc8856f4	-0.016643025
40	0xbcf64255	-0.030060926
41	0xbcb46502	-0.02202082
42	0x3da40f07	0.08010679
43	0xbd9648f9	-0.07338137
44	0xbcc1ea8c	-0.023671411
45	0x3d1ec318	0.038760275
46	0xbc9e2fa4	-0.019309826
47	0xbda7e33b	-0.08197638
48	0xbddc55ac	-0.10758528
49	0xbdb4202f	-0.08795201
50	0xbd0c3b54	-0.034236267
51	0x3d630d36	0.05543252
52	0x3d2aa0dc	0.041657314
53	0xbdbe9c63	-0.09307172
54	0xbc8cf254	-0.017205395
55	0xbe03ad60	-0.12859106
56	0xbdb812cd	-0.08987961
57	0x3d1d623c	0.03842376
58	0xbc3eac53	-0.011637765
59	0xbdf8b582	-0.12143995
60	0x3d853a69	0.065052815
61	0xbd486192	-0.048921175
62	0x3c82de9e	0.015975293
63	0xbcb3d8c1	-0.021953942
64	0xbd8a2a41	-0.067463405
65	0x3c24e9c5	0.010065501
66	0x3d458e50	0.048231423
67	0x3d1f7683	0.03893138
68	0xbd45a0b3	-0.048248958
69	0xbb25c050	-0.002529163
70	0xbc8bd512	-0.017069373
71	0x3cbb1fa5	0.022842238
72	0x3d2b68a9	0.04184786
73	0x3d35df48	0.04440239
74	0xbcd81f0f	-0.026381997
75	0x3cada061	0.021194639
76	0xbd80e144	-0.06292966
77	0xbcf2115e	-0.029549297
78	0x3d1813a5	0.03712811
79	0xbd9eddfa	-0.077571824
80	0xb836e8c1	-4.360895e-05
81	0x3a8e0932	0.0010836481
82	0xbd5d5877	-0.054039445
83	0xbdec9cd0	-0.11553347
84	0x3dbffb13	0.093740605
85	0x3de2335a	0.11044951
86	0xbd58ba85	-0.052912254
87	0xbdd2866b	-0.102795444
88	0xbe05eb65	-0.13078077
89	0x3b44e952	0.0030046296
90	0xbca4e3c9	-0.020128148
91	0xbd4f05df	-0.05054271
92	0xbd086db6	-0.033307754
93	0xbd084500	-0.03326893
94	0x3d0eceb0	0.03486508
95	0xbcc7eb9f	-0.024404345
96	0xbd7cef6f	-0.06175178
97	0xbcae13b2	-0.021249626
98	0xbc30477b	-0.01075923
99	0x3d21daab	0.03951518
100	0xbd063a5b	-0.032770496
101	0xbc1a37cc	-0.009412717
102	0x3bac3308	0.005255107
103	0xbdbb4ae0	-0.09145141
104	0xbdb6b32e	-0.089208946
105	0xbdb907cb	-0.090346895
106	0x3ca09db5	0.01960645
107	0xbd9d3e99	-0.07677955
108	0xbd3bbe39	-0.045835707
109	0xbd17c269	-0.03705064
110	0x3caa79b9	0.020809995
111	0xba289de8	-0.0006432221
112	0x3d247303	0.040148746
113	0xbbed1114	-0.007234702
114	0xbd5d5c90	-0.054043353
115	0x3dea6987	0.11445909
116	0xbdad7d98	-0.08471221
117	0x3c8bba48	0.0170566
118	0xbc4c21c6	-0.012459224
119	0xbc893dbc	-0.01675307
120	0xbd34e70c	-0.044165656
121	0xbdeb9e0e	-0.11504756
122	0xbd7fff2e	-0.062499218
123	0x3c2b6b7b	0.010462637
124	0x3c98e12b	0.018662056
125	0x3ba17fef	0.004928581
126	0x3cd91dcb	0.026503464
127	0x3cbc56d5	0.022990623
128	0x3d053741	0.032523397
129	0x3cc0a6b3	0.023516988
130	0x3d309fa4	0.043120995
131	0xbd6ea595	-0.05826338
132	0xbd4af76e	-0.049552374
133	0x3d7f20cb	0.062287133
134	0xbca73937	-0.020413024
135	0x3cb1808f	0.021667747
136	0xbd1404e6	-0.036137484
137	0x3d1fbb7e	0.038997166
138	0x3d0dc3cf	0.034610566
139	0xbddf553e	-0.109049305
140	0xbbbbbd8a	-0.005729382
141	0xbbeda6c0	-0.007252544
142	0xbde1fa1c	-0.11034033
143	0xbc45e055	-0.012077411
144	0xbc5874ef	-0.013211473
145	0xbd5bba6b	-0.05364458
146	0xbdc79174	-0.0974454
147	0xb983bb1b	-0.00025125672
148	0x3d4f5990	0.050622523
149	0xbde434cf	-0.11142885
150	0x3d0e902e	0.03480547
151	0x3d3cab4b	0.046061795
152	0x3d07c79c	0.033149347
153	0xbdc739e8	-0.097278416
154	0xbd657179	-0.05601642
155	0x3c6a526a	0.014301876
156	0xbd57042a	-0.052494206
157	0x3d8e9989	0.06962878
158	0x3b99a15c	0.004688425
159	0xbc411d9e	-0.011786846
160	0xbd7e17d2	-0.062034436
161	0x3d4da3a6	0.050204895
162	0xbe10afc6	-0.14129552
163	0xbd0feaf8	-0.035136193
164	0x3be8b07e	0.0071011176
165	0xbc336eb4	-0.010951687
166	0xbd27c399	-0.04095802
167	0x3ce3977e	0.027782198
168	0x3a1a3567	0.00058825914
169	0x3db9bd8c	0.09069356
170	0xbd6a1418	-0.05714807
171	0x3cb12ef1	0.021628829
172	0x3d528a83	0.051401626
173	0x3d1e7004	0.038681045
174	0x3ca96703	0.020679003
175	0xba680a6d	-0.0008851651
176	0xbd4751bf	-0.048661944
177	0xbcf597a7	-0.02997954
178	0x3d4b9e0f	0.049711283
179	0xbc9942b1	-0.018708559
180	0x3cc27960	0.023739517
181	0x3b9772b4	0.004621828
182	0xbda79c02	-0.08184053
183	0xbd4ec336	-0.050479136
184	0xbdb8f2dd	-0.090306975
185	0x3af41b0b	0.0018623782
186	0xbdb529e9	-0.08845884
187	0xbcc636a4	-0.024195977
188	0x3d9ce86c	0.076615185
189	0xbdb45b0d	-0.08806429
190	0xbb3ecf1f	-0.0029115153
191	0x3bc734d4	0.0060792957
192	0xbde41cc9	-0.11138303
193	0xbc6d7648	-0.0144935325
194	0x3d25e215	0.04049881
195	0xbd96d149	-0.07364137
196	0x3d6516b3	0.05592985
197	0x3d466d19	0.048443887
198	0xbd18717b	-0.0372176
199	0xbda33949	-0.07969911
200	0xbd2d3469	-0.04228631
201	0x3d02316d	0.031785417
202	0xbd8f2d67	-0.06991082
203	0xbd41c0f5	-0.04730316
204	0xbc9d34bd	-0.019190187
205	0xbd0c995a	-0.034325935
206	0x3d683a9a	0.05669651
207	0xbc3ded7a	-0.011592263
208	0xbd6f33d8	-0.05839905
209	0xbdd3487d	-0.103165604
210	0x3c8fec3c	0.0175687
211	0xbdc37306	-0.09543423
212	0x3d7a308e	0.06108146
213	0x3d6e4c91	0.05817849
214	0xbc5b76cc	-0.013395023
215	0x3c8af0a7	0.016960455
216	0xbb125ccd	-0.0022333146
217	0xbcde23ca	-0.027116675
218	0x3da95ed6	0.08270042
219	0xbd3faf6e	-0.046798162
220	0xbd974d84	-0.07387832
221	0x3bc553d5	0.0060219564
222	0xbc8dd055	-0.017311255
223	0xbb05f7f0	-0.0020441972
224	0xbd7adcd1	-0.061245743
225	0x3dc39b79	0.095511384
226	0xbc44eaf3	-0.012018907
227	0x3cc47eb5	0.0239862
228	0xbd79e0b3	-0.061005305
229	0xbd89ed59	-0.067347236
230	0x3c8d7ee7	0.017272426
231	0xbdc665d9	-0.09687395
232	0xbc2bc4d7	-0.010483942
233	0xbc2ba288	-0.010475762
234	0x3dea5465	0.11441878
235	0xbb27beb6	-0.002559585
236	0xbdb3bec3	-0.08776619
237	0x3db282db	0.08716365
238	0xbce23e78	-0.027617678
239	0xbd624577	-0.055242028
240	0x39bcc797	0.0003600686
241	0xbe0f9578	-0.14021862
242	0xbc01c1cc	-0.00791974
243	0xbab76edd	-0.0013994832
244	0xbdb3ec48	-0.087853014
245	0xbd426907	-0.047463443
246	0xbc09f944	-0.008421246
247	0x3c512c5b	0.012766923
248	0xbdbf0694	-0.093274266
249	0xbd2a82b4	-0.041628554
250	0xbdd04751	-0.101698525
251	0xbd284cdc	-0.041088924
252	0xbd41e3f7	-0.047336545
253	0xbca1c4ac	-0.0197471
254	0x3d09fe2d	0.033689667
255	0x3c7b33a9	0.015332141

actor.4.weight f4 [128, 256]
0	0x3cd2385d	0.025661642
1	0x3d6cc25d	0.057802547
2	0x3d781fe9	0.060577307
3	0x3d7c798b	0.06163935
4	0x3cb82478	0.022478327
5	0x3d857359	0.065161414
6	0xbd3bf7f3	-0.04589076
7	0xbcd0342f	-0.025415508
8	0xbc4368ec	-0.011926871
9	0xbd416cc0	-0.047222853
10	0x3d1cd1df	0.038286086
11	0x3d5f4761	0.05451143
12	0x3cb364f5	0.021898726
13	0xbd060001	-0.032714847
14	0x3cbc17f3	0.022960639
15	0x3c88dda5	0.01670725
16	0xbd6f0fb5	-0.05836459
17	0x3d302ca2	0.043011315
18	0x3d0ab569	0.033864412
19	0x3c5d32b5	0.013500859
20	0xbbb81755	-0.005618016
21	0xbc1ef86a	-0.009702781
22	0x3ce0567c	0.027384989
23	0xbc7f7aff	-0.015593289
24	0xbcd34030	-0.025787443
25	0xbd216937	-0.03940698
26	0xba7b7f6b	-0.0009593877
27	0x3d6a4b05	0.05720045
28	0x3b2462b0	0.0025083236
29	0x3bf9ed87	0.0076271924
30	0xbcd58fc3	-0.026069527
31	0xbd395192	-0.045243807
32	0xbd0101e1	-0.031495932
33	0xbd0b53d8	-0.034015507
34	0x3d0cacc1	0.03434444
35	0xbbc7dd17	-0.006099354
36	0xbd6296bb	-0.05531953
37	0x3d4d8ad5	0.05018123
38	0xbb0f8b9e	-0.0021903287
39	0xbd64e9cf	-0.05588704
40	0x3c29ade4	0.0103564
41	0xbc1a6020	-0.009422332
42	0x3d37b901	0.044854168
43	0xba3f4709	-0.0007296657
44	0xbc9b1583	-0.018931156
45	0xbd92c9d8	-0.07167405
46	0x3c98af95	0.018638412
47	0x3d5640ed	0.05230801
48	0x3b8eed27	0.004361767
49	0xbd47fd0a	-0.0488253
50	0x3ce72d7b	0.028219929
51	0xbcf44f29	-0.029822903
52	0xbbcc765e	-0.0062396964
53	0x3cd81e97	0.026381774
54	0x3a926df1	0.0011171681
55	0x3bdd79d4	0.006758908
56	0xbc839ba6	-0.01606543
57	0x3c9f32a5	0.019433329
58	0x3d3eaa2e	0.046549015
59	0x3d2dc40e	0.0424233
60	0xbcb6014a	-0.022217412
61	0x3d5f1ff4	0.054473832
62	0xbd887a90	-0.06664002
63	0xbd67cd51	-0.05659229
64	0xbbf13fe5	-0.007362353
65	0x3d0b1c40	0.03396249
66	0xbc7ddf1c	-0.015495088
67	0xbc9fdb08	-0.019513622
68	0x3ae8c848	0.0017759884
69	0x3b7c9617	0.003854161
70	0xbc1626c4	-0.009164516
71	0x3d99f847	0.07518058
72	0xbbf5ec43	-0.007504971
73	0xbab51330	-0.0013814922
74	0x3bea6d05	0.0071541094
75	0x3ce44320	0.027864039
76	0xbc727b19	-0.014799857
77	0xbcfd26d3	-0.030902302
78	0xbd85be60	-0.06530452
79	0xbd0fe034	-0.035125926
80	0x3da0ba0d	0.07847986
81	0xbd27bf3a	-0.040953852
82	0x3d603703	0.054739963
83	0xbbddd64d	-0.0067699314
84	0xbbf6c63e	-0.0075309565
85	0x3d78f633	0.06078167
86	0x3d1536a3	0.03642906
87	0xbc12992b	-0.008947651
88	0xbbee0ab2	-0.0072644586
89	0x3d0cd9d8	0.03438744
90	0x3d646997	0.05576476
91	0x3d60ad6c	0.054852888
92	0xbc9a3038	-0.01882182
93	0x3cb31d32	0.021864507
94	0xbd377bb5	-0.04479571
95	0x3d1ba6cc	0.038000867
96	0x3cb9cf05	0.022681722
97	0xbc8dc912	-0.017307792
98	0x3d917dab	0.071040474
99	0xba406e6d	-0.00073406735
100	0xbc287b8a	-0.01028336
101	0xbd516d57	-0.051129665
102	0x3d39a514	0.045323446
103	0x3d2fff16	0.04296788
104	0xbcdf9ba9	-0.027295904
105	0x3c11d32d	0.008900446
106	0xbd4c7525	-0.049916405
107	0x3d413a64	0.047174826
108	0xbd443c51	-0.047909085
109	0xbd52e341	-0.051486257
110	0x3d127eb5	0.03576537
111	0x3ba3cee4	0.0049990285
112	0xbd5f4af0	-0.054514825
113	0x3cc78eb7	0.024360044
114	0x3ceac438	0.028658018
115	0xbcaa0ffb	-0.020759573
116	0x3d81e79e	0.063430056
117	0xbcf7dc1c	-0.030256324
118	0x3bd88fd1	0.006608941
119	0x3b8cf00a	0.004301076
120	0x3ce1708d	0.027519489
121	0xbcc5c6d5	-0.024142662
122	0xba71d224	-0.0009224734
123	0x3d4fc891	0.050728384
124	0x3d7a9767	0.061179545
125	0x3c8e205e	0.017349418
126	0x3c111753	0.008855659
127	0xbd5493fc	-0.05189894
128	0xbd7f9e48	-0.06240681
129	0xbca9afcf	-0.020713715
130	0xbc903ba8	-0.017606571
131	0xbcc17abf	-0.0236181
132	0xbd438fbe	-0.047744505
133	0x3d8045b9	0.062632985
134	0x3b25f2b9	0.0025321676
135	0x3d4305db	0.047613006
136	0xbd15eb98	-0.036601633
137	0x3d4e16d2	0.050314732
138	0x3cac6d83	0.021048313
139	0xbb770111	-0.0037689845
140	0x3cac0e5c	0.02100294
141	0xbb87f9dd	-0.004149659
142	0x3d187a0b	0.037225764
143	0x3caf7b41	0.021421077
144	0xbcd871ab	-0.026421389
145	0x3d1d18ea	0.038353838
146	0x3c8f2680	0.017474413
147	0x3d30dba5	0.04317822
148	0xbd29f3d5	-0.041492302
149	0x3ccce3e3	0.025011009
150	0xbd4e3cfb	-0.050351124
151	0xbcaf9974	-0.021435477
152	0x3b4a1963	0.0030837886
153	0xbb83410e	-0.004005558
154	0x3d05b44c	0.032642648
155	0xbc1046a0	-0.008805901
156	0x3d197fb0	0.037475288
157	0xbd5ad891	-0.05342919
158	0xbcd197af	-0.025585024
159	0xbd573dd5	-0.052549202
160	0xbd817279	-0.06320662
161	0x3d401f91	0.046905104
162	0x3d0e33a5	0.03471722
163	0x3d7c5397	0.061603155
164	0x3d5f0d1f	0.054455873
165	0xbd36196a	-0.04445783
166	0x3cf6975b	0.030101469
167	0x3d82336e	0.06357466
168	0xbd5ab0a5	-0.053391118
169	0x3d762a1e	0.06009876
170	0x3d1c7227	0.0381948
171	0x3d1c4a90	0.038157046
172	0xbd007f1c	-0.03137122
173	0xbd036a9b	-0.03208409
174	0xbd0af305	-0.033923168
175	0x3c9df255	0.019280592
176	0x3d504e2d	0.050855804
177	0x3d409fa8	0.04702726
178	0xbce75b47	-0.028241767
179	0x3c2cc17d	0.010544178
180	0x3cd5f52d	0.026117885
181	0x3d9c7a61	0.076405294
182	0x3d493b7c	0.049128994
183	0x3d2b18ac	0.041771576
184	0x3a987c12	0.0011633656
185	0x3cc3a8ca	0.023884196
186	0x3cc08f01	0.02350569
187	0xbd316b0c	-0.04331498
188	0x3d2a14e1	0.041523818
189	0x3c3fbb9c	0.011702444
190	0x3cf6e9ee	0.030140843
191	0xbd255f56	-0.040374123
192	0x3bcaefb9	0.006193128
193	0x3d6556eb	0.055991095
194	0xbcf6a1d4	-0.030106463
195	0xbd06aa4a	-0.032877244
196	0x3d3e1caa	0.046414055
197	0x3d8f8f41	0.070097454
198	0xbbe3ff19	-0.0069579002
199	0x3ced0884	0.028934725
200	0xbc995795	-0.01871852
201	0x3d6aa9ad	0.05729072
202	0x38e662f1	0.00010985684
203	0xbc5759d3	-0.013143974
204	0xbcb43141	-0.021996142
205	0x3c917e36	0.017760377
206	0x3b955afc	0.0045579653
207	0xbd8b086d	-0.067887165
208	0x3c37fdda	0.0112299565
209	0x3d64960d	0.055807162
210	0xbc8f4b88	-0.01749207
211	0x3d53b817	0.051689234
212	0x3d193ea6	0.03741326
213	0xbc9caff0	-0.019126862
214	0x3c34b947	0.011030502
215	0xbd825cc8	-0.06365353
216	0x3d1131f6	0.035448037
217	0xbd406499	-0.046970937
218	0xbd898563	-0.067148946
219	0xbd2bc3b7	-0.041934695
220	0xbcfb4492	-0.030672345
221	0x3ca24bf7	0.019811613
222	0x3bc297bf	0.0059384997
223	0xbd18697a	-0.037209965
224	0x3d5f4e3f	0.05451798
225	0xbd8cc678	-0.068737924
226	0x3d411a8f	0.04714447
227	0xbc5400b4	-0.012939621
228	0xbcfa64fe	-0.030565735
229	0xbc8fd44e	-0.01755729
230	0x3d28a868	0.04117623
231	0x3d8d80eb	0.06909355
232	0x3cb12b18	0.021626994
233	0xbd5e83ac	-0.05432479
234	0x3ca24ea5	0.019812891
235	0x3caa3848	0.02077879
236	0x3d4b824c	0.049684808
237	0x3d46a20d	0.048494387
238	0xbc9af3cc	-0.01891508
239	0x3d55e26e	0.052217893
240	0x3d0df3ad	0.034656215
241	0x3d9615dc	0.07328388
242	0x3d568ce7	0.05238047
243	0x3d6578da	0.056023456
244	0x3d397b82	0.0452838
245	0xbc1912b7	-0.009342841
246	0x3ca77d4a	0.020445485
247	0x3d459046	0.048233293
248	0x3d563f2e	0.052306347
249	0xbd77c100	-0.060486794
250	0xbc879e8d	-0.016555095
251	0x3a18f4f9	0.00058348436
252	0x3d3f2ee1	0.046675567
253	0x3d181b80	0.0371356
254	0x3d58b964	0.052911177
255	0xbd65fe6a	-0.05615083

actor.4.bias f4 [128]
0	0x3d347c46	0.04406383
1	0x3d8f0b3e	0.06984566
2	0x3d6c6672	0.057714887
3	0xbd1d5e10	-0.038419783
4	0xbd19f0ae	-0.037583046
5	0xbd85a1e1	-0.065250166
6	0x3cd41fe1	0.025894107
7	0x3d2b4c8c	0.041821048
8	0xbd06756e	-0.032826833
9	0xbd2a793d	-0.041619528
10	0xb6966f04	-4.4832723e-06
11	0xbd5cb192	-0.05388028
12	0x3d660186	0.056153797
13	0xbd1df7ae	-0.038566284
14	0xbbd58703	-0.006516339
15	0x3b9976fb	0.004683373
16	0x3c67bcaa	0.014144102
17	0xbc3d668c	-0.011560094
18	0x3ba4f799	0.0050343988
19	0x3d400d09	0.04688743
20	0x3d3765e6	0.044774912
21	0x3aaa0a96	0.0012973126
22	0x3d0cf2ce	0.034411244
23	0xbc865d06	-0.016401779
24	0xbd00deec	-0.031462595
25	0x3bd61f42	0.006534488
26	0xbdabdf0f	-0.083921544
27	0xbd1b90d1	-0.037979905
28	0x3c7da3e0	0.015480965
29	0xbd9d5c4c	-0.0768362
30	0xbca6093c	-0.020268075
31	0x3ca83283	0.020531898
32	0x3d382f1f	0.044966813
33	0xbda182dd	-0.07886288
34	0xbcb63316	-0.022241157
35	0x3d6027e9	0.05472556
36	0x3ce28c08	0.027654663
37	0xbc8ce7cf	-0.017200379
38	0xbd50a80a	-0.050941505
39	0x3cb48a27	0.022038532
40	0x3c8b5622	0.017008845
41	0x3d41d499	0.04732189
42	0x3d3bf319	0.045886133
43	0xbd55dd62	-0.05221308
44	0x3d3b2b04	0.04569532
45	0xbc76ce9f	-0.015063911
46	0xbd3c7a63	-0.046015155
47	0x3cff51d9	0.031166958
48	0x3d0e3c47	0.034725454
49	0x3c43df56	0.011955103
50	0xbd817341	-0.06320811
51	0xbd3f5ec5	-0.04672124
52	0xbd3bf5be	-0.045888655
53	0xbd9447ab	-0.07240232
54	0x3d80a2de	0.062810645
55	0x3d28ea92	0.04123933
56	0x3d0c9fd7	0.034332123
57	0x3d0f5b2a	0.03499905
58	0xbd22737c	-0.039660916
59	0xbd8b74d2	-0.06809391
60	0x3cf34b93	0.029699123
61	0x3baca769	0.0052689803
62	0x3bcc202d	0.0062294216
63	0x3cdb2d0f	0.026754884
64	0x3d1021e6	0.035188578
65	0xbd4a174d	-0.049338628
66	0xbd72dcfc	-0.05929278
67	0x3b944547	0.00452486
68	0x3d575f32	0.05258102
69	0xbdaa3eee	-0.08312784
70	0xbd6092c9	-0.054827485
71	0x3d99442f	0.07483708
72	0x3d8a43ea	0.06751235
73	0xbda03e3d	-0.07824371
74	0xbd31bb13	-0.0433913
75	0x39a06ab5	0.0003059708
76	0x3c0444cf	0.008073046
77	0xbd80fd2d	-0.062982894
78	0xbdb2aa1b	-0.08723851
79	0xbd0979f8	-0.033563584
80	0x3d5fb67c	0.05461739
81	0xbd66b429	-0.056324158
82	0x3d295d76	0.041348897
83	0xbbcb2afd	-0.006200193
84	0x3cf5b413	0.029993093
85	0xbd2e63cf	-0.042575654
86	0x3b8b90ad	0.00425919
87	0x3cc571c2	0.024102096
88	0x3d6d76c7	0.057974603
89	0xbc98956c	-0.018625937
90	0xbbe34220	-0.006935373
91	0xbd4e192b	-0.05031697
92	0x3d4ac377	0.049502816
93	0x3d53e63d	0.051733244
94	0xbd0a36ff	-0.033743855
95	0xbc89972e	-0.01679572
96	0x3d2585b7	0.040410724
97	0x3d87efbd	0.06637523
98	0x3cadb8b3	0.021206236
99	0xbcedf058	-0.029045269
100	0xbd4aef5a	-0.04954467
101	0xbca068a9	-0.019581156
102	0xbbea2712	-0.007145771
103	0xbbedfdd1	-0.0072629233
104	0x3d9c817e	0.07641886
105	0xbcb1c00f	-0.021698026
106	0xbd8afd4f	-0.06786596
107	0xbd40c2d8	-0.047060817
108	0xbd4b8f22	-0.04969705
109	0xbd8bf74b	-0.06834277
110	0x3d2dfcec	0.042477533
111	0xbcafaf8c	-0.021446012
112	0x3c9c9582	0.01911426
113	0xbcdf7aa7	-0.027280165
114	0xbd19ab27	-0.03751674
115	0x3b93277b	0.0044907904
116	0xbd816b9b	-0.06319352
117	0x3c8bd9e8	0.01707168
118	0xbda24a4a	-0.07924326
119	0xb9c8fbdd	-0.00038334625
120	0xbc91eabc	-0.017812125
121	0xbdbd21c5	-0.09234957
122	0xbd7258ac	-0.059166595
123	0xbd214eff	-0.039381977
124	0xbd81bbca	-0.06334646
125	0x3cdf9ad3	0.027295506
126	0xbcf2dc2c	-0.029646002
127	0xbbab29ed	-0.005223504

actor.6.weight f4 [8, 128]
0	0x3d32d951	0.04366428
1	0x37d4b159	2.5354953e-05
2	0xbd02e354	-0.03195508
3	0x3d3d005e	0.04614293
4	0xbc31232c	-0.010811608
5	0xbade983f	-0.0016982629
6	0x3b85081f	0.004059806
7	0x3cc83e31	0.024443718
8	0xbd8098fb	-0.06279179
9	0x3d3bee6a	0.045881666
10	0x3cc12d16	0.023581069
11	0x3c789006	0.015171057
12	0x3d49dca6	0.049282692
13	0x39a2ceaa	0.00031053025
14	0x3d15f62d	0.036611725
15	0xbd999d0f	-0.0750066
16	0x39058362	0.00012732812
17	0x3cb00686	0.021487486
18	0xbd7acee5	-0.061232466
19	0xbd055c7d	-0.032558907
20	0x3c2e2ad2	0.010630326
21	0x3cc77214	0.024346389
22	0xbc0f3264	-0.008740041
23	0x3d7d05e8	0.06177321
24	0xbd844ab6	-0.064595625
25	0xbd2bc725	-0.041937966
26	0xbd9c6725	-0.07636861
27	0x3d50cc1a	0.050975896
28	0x3c8ff52a	0.017572958
29	0xbd718553	-0.05896504
30	0x3b217253	0.0024634793
31	0xbc8c76cb	-0.017146489
32	0x3d43f334	0.04783936
33	0x3da68643	0.08131077
34	0xbc19b366	-0.009381151
35	0x3bb5e758	0.00555126
36	0x3d885f2e	0.06658779
37	0x3c45050b	0.012025128
38	0xbd07ae10	-0.033124983
39	0x3c092ad8	0.008372031
40	0xbd4f3948	-0.050591737
41	0xbc3d21d4	-0.01154371
42	0xbc9d4245	-0.019196639
43	0xbd89f418	-0.0673601
44	0xbd9e673e	-0.07734536
45	0x3da21270	0.07913673
46	0xbd172cf1	-0.036908094
47	0xbd6e2d14	-0.05814846
48	0x3d88c390	0.066779256
49	0x3a80c6e0	0.0009824894
50	0xbc1a1162	-0.009403558
51	0xbd61a6af	-0.055090602
52	0x3b7fdc2b	0.0039041142
53	0xb8832f81	-6.255415e-05
54	0x3c0e11c2	0.008671226
55	0x3b88e3f7	0.004177566
56	0xbbcdf03f	-0.006284743
57	0xbca2aa6d	-0.019856656
58	0x3ccb9bd8	0.024854586
59	0x3c88b3c6	0.016687285
60	0xbce2731a	-0.027642775
61	0xbd829c35	-0.063774504
62	0x3b7cef39	0.0038594736
63	0x3c7239c2	0.014784278
64	0xbd22faa0	-0.039789796
65	0xbd9534a7	-0.07285433
66	0x3cfb0d5c	0.030646019
67	0xbd088717	-0.033331957
68	0x3c52260f	0.012826457
69	0xbd5ca9ec	-0.053872988
70	0xbbfd3520	-0.0077272803
71	0xbca4ad29	-0.0201021
72	0x3c76d083	0.0150643615
73	0x3d931933	0.07182541
74	0xbb4de1aa	-0.0031415024
75	0xbcadf349	-0.021234171
76	0x3cabd876	0.02097724
77	0x3d5299e7	0.051416304
78	0x3d8f02e1	0.06982971
79	0x3c868405	0.016420374
80	0x3d15ab18	0.03654012
81	0xbcf2252e	-0.029558744
82	0xbc8c16bc	-0.017100684
83	0xbca086f9	-0.01959561
84	0x3d75a17e	0.059968464
85	0xbca22c52	-0.019796524
86	0x3d9386b6	0.072034284
87	0xbb5ada12	-0.003339414
88	0xbcd3559c	-0.025797658
89	0xbc7c25e0	-0.0153898895
90	0xbd11cc4c	-0.035595223
91	0xbd1521ba	-0.036409117
92	0x3cd5649e	0.026048955
93	0xbb16bdf3	-0.0023001402
94	0x3d30ecca	0.04319457
95	0x3d0d95a3	0.034566533
96	0xbc9a38ac	-0.018825851
97	0xbcd53a52	-0.026028786
98	0xbd384629	-0.044988785
99	0x3a468ec9	0.0007574377
100	0x3d2a682b	0.04160325
101	0xbce5cecf	-0.028052716
102	0xbc5f346f	-0.013623341
103	0x3d554509	0.05206779
104	0x3d18868a	0.03723768
105	0xbd31af85	-0.04338028
106	0x3c736981	0.014856697
107	0xbc883729	-0.016627865
108	0x3d1828c2	0.037148245
109	0x3d09fe98	0.033690065
110	0xbcda446b	-0.026643952
111	0x3daeeb09	0.08540923
112	0xbbf14376	-0.0073627783
113	0x3cf66cbb	0.030081144
114	0x3d015b30	0.031581104
115	0xbd5dff6e	-0.054198675
116	0xbc1ceecb	-0.009578417
117	0xbd7a7a69	-0.061151896
118	0xbc92f77a	-0.017940272
119	0xbd1f5f18	-0.038909048
120	0xbcabadac	-0.020956837
121	0x3b871cae	0.004123292
122	0xbd8d5a01	-0.069019325
123	0xbc6de087	-0.0145188635
124	0x3cd93bce	0.026517775
125	0x3d326573	0.04355378
126	0x3c802075	0.015640477
127	0xbc80d482	-0.015726332
128	0xbd8749c2	-0.06605865
129	0x3d399db2	0.045316406
130	0xbcdee4da	-0.027208734
131	0xbd07717f	-0.033067223
132	0xbd60f481	-0.054920677
133	0x3cec8f6a	0.028876979
134	0x3d42d930	0.047570407
135	0xbd09c5fc	-0.03363608
136	0xbd667899	-0.056267355
137	0x3c7b57be	0.015340744
138	0x3d8b2bb0	0.06795442
139	0x3cc6ebd8	0.024282381
140	0x3d0a57b6	0.033775054
141	0x3c975dd7	0.018477364
142	0x3d399767	0.045310404
143	0x3bab36f7	0.005225058
144	0x3c09a52a	0.008401195
145	0x3d60ae96	0.054853998
146	0x3cc0a74e	0.023517277
147	0xba565ad7	-0.00081769883
148	0x3d1f3dff	0.038877483
149	0x3c1f8218	0.009735607
150	0xbcf4e26a	-0.029893119
151	0xbbf54266	-0.007484722
152	0xbcd38081	-0.025818111
153	0x3d541495	0.05177744
154	0x3c033347	0.008007831
155	0x3d6c7c22	0.05773557
156	0x3c5584af	0.0130321225
157	0x3cbf2a5a	0.023335624
158	0xbbe2bbf3	-0.006919378
159	0x3d16b9fb	0.03679846
160	0xbd8658a4	-0.065598756
161	0xbd745de5	-0.059659857
162	0xbd2c0d07	-0.04200461
163	0x3d033234	0.0320303
164	0x3d7e414a	0.062073983
165	0x3d041d0b	0.03225426
166	0x3bbe3631	0.0058048
167	0xbc85503b	-0.016273608
168	0xbd276d88	-0.04087594
169	0xbd4603c8	-0.04834345
170	0xbbc62f4c	-0.0060481187
171	0x3c6d90ad	0.014499825
172	0xbd5e3f53	-0.05425961
173	0x3c6ef3cb	0.014584492
174	0xbc1719f9	-0.009222501
175	0x3d6a2f85	0.057174224
176	0x3d7ef094	0.062241152
177	0x3d3c404f	0.045959767
178	0x3c0b6743	0.008508506
179	0xbbb8baf5	-0.0056375214
180	0x3d158593	0.03650434
181	0x3d8f7109	0.070039816
182	0x3d0735cf	0.0330103
183	0xbd7c2ee9	-0.061568175
184	0x3cfd47f5	0.0309181
185	0xbb7b549c	-0.0038349992
186	0xbb4d355c	-0.0031312322
187	0xbc5e0142	-0.013550105
188	0x3bda7b2d	0.0066675157
189	0x3d6bdecd	0.057585526
190	0x3c2725ec	0.010201912
191	0x3d325cff	0.04354572
192	0x3d7ef6ac	0.062246963
193	0xbd40d990	-0.047082484
194	0xbce924d2	-0.02845994
195	0xbcc7219c	-0.024308018
196	0x3c39654a	0.011315653
197	0x3d85d2b3	0.06534328
198	0x3d8a1b18	0.06743449
199	0x3cab9364	0.020944305
200	0xbc1d3ffc	-0.009597775
201	0xbd4b8ad4	-0.049692944
202	0x3c982fa1	0.018577399
203	0x3d0ed35a	0.03486953
204	0x3c4b8df0	0.012423977
205	0xbda59af7	-0.08086198
206	0x3d8042b3	0.06262722
207	0xbbf7d281	-0.007562936
208	0xbcb95031	-0.022621246
209	0x3d8a7bdb	0.06761905
210	0x3c395f54	0.011314232
211	0xba704ded	-0.0009166885
212	0x3c9ec448	0.019380704
213	0x3d3223fb	0.043491345
214	0xbda98b98	-0.082785785
215	0x3d8acb93	0.0677711
216	0x3c43a9e3	0.01194236
217	0x3d75f8d6	0.06005176
218	0x3c84886d	0.016178334
219	0x3d0af349	0.03392342
220	0xbd8c6a24	-0.06856182
221	0x3c97cbba	0.018529762
222	0xbb851759	-0.004061621
223	0xbcb6092c	-0.02222117
224	0x3cdaf8ff	0.026730059
225	0x3c7d67ff	0.015466689
226	0xbd7f991a	-0.06240187
227	0xbc012f6f	-0.007884844
228	0xbd6bc8e5	-0.057564635
229	0xbd53345b	-0.051563602
230	0x3c86da05	0.016461382
231	0xbc6bb5c0	-0.014386594
232	0xbca46190	-0.020066053
233	0x3cae0eab	0.021247229
234	0xbd25c75d	-0.04047333
235	0xbc2d8f33	-0.010593223
236	0x3d40d617	0.047079172
237	0x3c88b066	0.016685676
238	0xbc35ffb8	-0.011108331
239	0xbcdd9df8	-0.027052864
240	0x3cf35d4a	0.02970757
241	0xbd9167fe	-0.07099913
242	0xba9a1585	-0.0011755681
243	0xbd5d1307	-0.053973224
244	0xbd77bf4e	-0.060485177
245	0xbda33b8b	-0.07970341
246	0xbc4cba88	-0.012495644
247	0x3d1231e1	0.0356921
248	0x3d900f09	0.07034118
249	0x3d9106e7	0.07081395
250	0x3d17cb94	0.03705938
251	0xbd8da0be	-0.06915425
252	0xbcbb6a4c	-0.022877835
253	0x3c59bf74	0.013290275
254	0xbd0b767b	-0.03404854
255	0xbc951e4a	-0.01820292

actor.6.bias f4 [8]
0	0xbd08feb4	-0.03344603
1	0x3da165da	0.07880755
2	0xbd6256d7	-0.0552586
3	0x3c900e54	0.017584957
4	0x3c94701c	0.018119864
5	0xbd9a2ca2	-0.07528044
6	0xbd908563	-0.070566915
7	0xbdd4f1c0	-0.10397673
